models/transformer_seq_dec.pt (torch, 164942 bytes, 190 tensors)

encoder.layers.0.self_attention_block.w_q.weight f4 [16, 4]
0	0xbead5373	-0.3385273
1	0x3d9e016b	0.07715114
2	0x3ee076c9	0.43840626
3	0xbe561c3a	-0.20909205
4	0xbd138972	-0.03601975
5	0x3ef614c6	0.48062724
6	0xbef1a686	-0.4719736
7	0xbefa187f	-0.48846814
8	0xbdbf09f3	-0.093280695
9	0x3e66b429	0.22529663
10	0xbe503251	-0.20331694
11	0x3f044e2b	0.51681775
12	0xbea4759e	-0.32120985
13	0x3e9b5107	0.30335256
14	0x3e905070	0.2818637
15	0x3e266f27	0.16253339
16	0x3de463e8	0.11151868
17	0x3c9495f9	0.018137919
18	0x3d8c6e23	0.068569444
19	0x3ec238f1	0.37934068
20	0x3ee75a8f	0.45186278
21	0xbefb844a	-0.49124366
22	0x3eb4dc91	0.3532453
23	0xbef2e392	-0.47439247
24	0xbe40dd46	-0.18834409
25	0x3e4b6710	0.19863534
26	0xbe2dd063	-0.16974024
27	0x3f05fbcf	0.52337354
28	0xbce722a7	-0.028214766
29	0x3dc25fc1	0.0949092
30	0xbeaaa6b5	-0.33330312
31	0x3d175b15	0.036952097
32	0x3ee65f5b	0.44994625
33	0xbedfb5f7	-0.43693516
34	0xbecc840d	-0.39944497
35	0x3e691a7a	0.22764006
36	0xbe6db509	-0.2321359
37	0x3eda6f15	0.42662874
38	0xbe03200d	-0.12805195
39	0xbe8b7103	-0.2723466
40	0xbe4c39eb	-0.19943969
41	0xbea6b2e7	-0.32558367
42	0x3e3f5074	0.18683034
43	0xbeeeb546	-0.46622676
44	0xbe96370e	-0.29338878
45	0xbee09b1f	-0.43868348
46	0x3e51f9d0	0.20505452
47	0x3edf26a8	0.4358418
48	0xbeb53422	-0.35391337
49	0x3ebc119c	0.36732185
50	0xbf05f1ab	-0.5232188
51	0x3d33ea6f	0.043924745
52	0xbe841e65	-0.2580444
53	0xbe5e2578	-0.2169398
54	0xbd0a4b1f	-0.033763047
55	0x3f03df69	0.5151277
56	0x3eb8f6a9	0.36125687
57	0xbd254d16	-0.040356718
58	0xbc3ba75b	-0.011453475
59	0x3e4a7569	0.19771351
60	0x3ed45cba	0.41476995
61	0x3f001afe	0.50041187
62	0xbe69f5eb	-0.22847717
63	0xbef657aa	-0.48113757

encoder.layers.0.self_attention_block.w_k.weight f4 [16, 4]
0	0x3ec5dc69	0.38644722
1	0xbe395b9e	-0.18101355
2	0xbc418862	-0.011812301
3	0xbdd96d2d	-0.10616527
4	0xbe204b71	-0.15653779
5	0x3d37a89e	0.04483854
6	0xbe6a789d	-0.22897573
7	0x3e9b4cdf	0.30332085
8	0xbdb267ff	-0.08711242
9	0x3e3e1b28	0.18565047
10	0x3eb49442	0.35269362
11	0x3f0a3deb	0.5400073
12	0x3ed50fc4	0.4161359
13	0x3e85b7d2	0.26116806
14	0xbe0c1fab	-0.13683955
15	0x3ed9d2f3	0.42543754
16	0xbddc5be7	-0.107597165
17	0x3eb429fc	0.35188282
18	0x3c84de7e	0.016219374
19	0xbe31bca9	-0.17357124
20	0x3d931c1d	0.071830966
21	0xbeb1f870	-0.34759855
22	0xbec53981	-0.38520434
23	0x3ef7f7d9	0.4843128
24	0xbf005295	-0.5012601
25	0x3efe5bf9	0.49679545
26	0xbefee5a1	-0.49784568
27	0xbe6886dc	-0.22707695
28	0x3f021e05	0.50827056
29	0x3e93993c	0.28827846
30	0x3d15c06e	0.03656047
31	0x3ed6424c	0.41847456
32	0xbb9284a4	-0.0044713784
33	0xbf05b930	-0.522357
34	0x3d0150d2	0.031571217
35	0xbea8b02f	-0.32946917
36	0x3e1c731a	0.15278283
37	0x3eac4c3b	0.3365191
38	0x3f096283	0.5366594
39	0x3f048ceb	0.51777524
40	0xbeb482e2	-0.35256106
41	0x3ed2cffb	0.41174302
42	0x3e4b4d50	0.19853711
43	0xbe79a6ba	-0.24380007
44	0x3bdfdb0c	0.0068315323
45	0xbf0b63dc	-0.5444925
46	0xbe852700	-0.26006317
47	0xbcb69674	-0.022288539
48	0x3f0a2862	0.5396787
49	0xbef452d7	-0.47719452
50	0x3ef6b16d	0.4818224
51	0x3e03f7f0	0.1288755
52	0x3eda55ce	0.4264359
53	0xbe511e64	-0.2042175
54	0x3e8c4dc4	0.2740308
55	0x3eec1859	0.46112326
56	0xbe9c3a44	-0.30513203
57	0xbe2481e2	-0.16065171
58	0x3eeab3c4	0.45840275
59	0x3e1b4cd6	0.1516603
60	0xbe784736	-0.24245915
61	0x3ec910ea	0.39270717
62	0x3e5e0eff	0.21685408
63	0x3ecac643	0.39604387

encoder.layers.0.self_attention_block.w_v.weight f4 [16, 4]
0	0xbe4cfd7a	-0.20018569
1	0x3df4b937	0.119493894
2	0xbf07b47f	-0.5300979
3	0xbe0b173d	-0.13583083
4	0x3ed24e13	0.4107519
5	0xbe207f24	-0.156735
6	0xbeecc7ba	-0.4624613
7	0xbe60fea9	-0.21972145
8	0x3ee748ef	0.4517283
9	0xbea9be1f	-0.33152863
10	0xbaf5b4f5	-0.0018745946
11	0x3ec59a8f	0.3859448
12	0x3d6db3b5	0.05803271
13	0x3f0b5b80	0.5443649
14	0x3dc0dfcc	0.09417686
15	0xbea3b31a	-0.3197258
16	0x3e92ee75	0.28697553
17	0x3efe48f6	0.4966504
18	0x3cced24c	0.025246762
19	0x3eb21a28	0.3478558
20	0x3e791641	0.24324895
21	0x3eb09e02	0.3449555
22	0xbe05bdf0	-0.13060737
23	0x3ed6e655	0.41972604
24	0xbe081638	-0.13289726
25	0x3ec05f78	0.37572837
26	0x3ee57d98	0.44822383
27	0x3ee613c2	0.4493695
28	0x3dd5ba36	0.104359075
29	0x3d99a77a	0.07502647
30	0x3e0f77a6	0.14010486
31	0xbf0aced7	-0.5422186
32	0x3ebc8dc6	0.36826915
33	0xbf01dfb2	-0.50731957
34	0x3c7e50ac	0.015522163
35	0x3eafc595	0.3433043
36	0xbdbda26c	-0.09259495
37	0x3e240710	0.16018319
38	0x3dcac22b	0.09900316
39	0xbc8eb58b	-0.01742055
40	0xbe78cfc0	-0.24298
41	0x3cb8a8f3	0.022541499
42	0x3f037b06	0.51359594
43	0xbea4ef8a	-0.32214004
44	0x3e5f01e5	0.21778066
45	0x3dad6fea	0.084686115
46	0x3e8ffafe	0.2812118
47	0x3e8104ef	0.25199077
48	0xbef465c6	-0.47733897
49	0x3df02aab	0.11726888
50	0x3e9ecd6a	0.31016093
51	0x3ee463ab	0.4460729
52	0xbd4f00e1	-0.050537948
53	0x3ead3551	0.3382974
54	0xbe80039e	-0.2500276
55	0xbeab0fae	-0.334104
56	0xbf06c2d1	-0.52641016
57	0x3ea179e5	0.3153831
58	0x3dfdd45c	0.1239402
59	0x3e6d22a2	0.23157743
60	0xbe434bdd	-0.19071908
61	0x3d850f27	0.06497031
62	0xbe6e36f6	-0.23263153
63	0xbeaf9f06	-0.34301013

encoder.layers.0.self_attention_block.w_o.weight f4 [4, 16]
0	0x3f0318c3	0.5120966
1	0x3eb42431	0.35183862
2	0x3ecf25da	0.40458566
3	0xbe7f4d91	-0.24931933
4	0x3e4327f0	0.19058204
5	0x3dd71b6e	0.10503279
6	0x3f00588b	0.50135106
7	0x3e913455	0.2836024
8	0xbefa0ad0	-0.48836374
9	0x3e89585e	0.2682523
10	0xbea25860	-0.3170805
11	0x3e9e5294	0.30922377
12	0xbd180175	-0.037110765
13	0x3e004365	0.12525709
14	0xbe68206d	-0.2266862
15	0xbeeef28d	-0.46669427
16	0xbdba3b9e	-0.09093402
17	0xbe907477	-0.28213856
18	0x3d8a7e27	0.06762343
19	0xbe50796e	-0.20358822
20	0xbf040132	-0.51564324
21	0xbe2af5c4	-0.16695315
22	0x3e215368	0.15754473
23	0x3ea39ee3	0.31957158
24	0xbee40570	-0.44535398
25	0xbedd9b4f	-0.43282554
26	0xbe66e5f7	-0.22548662
27	0x3e6c4e56	0.23076758
28	0xbec78622	-0.38969523
29	0x3f08267c	0.5318372
30	0xbedc4416	-0.43020695
31	0x3e6c8cb2	0.23100546
32	0x3eba8e19	0.36436537
33	0xbf0814f2	-0.5315696
34	0xbdf315f1	-0.11869419
35	0xbeb225f0	-0.3479457
36	0xbf0cef01	-0.5505219
37	0x3ee7c79a	0.4526947
38	0x3dfad45c	0.122475356
39	0xbe81526b	-0.25258192
40	0x3f04e790	0.51915836
41	0xbdcacf79	-0.099028535
42	0x3eed873d	0.4639224
43	0x3e8ba2c6	0.27272624
44	0x3ee27673	0.44230995
45	0x3eaa49a1	0.332593
46	0xbe6a316b	-0.22870414
47	0x3ea30707	0.318413
48	0x3e59b509	0.21260466
49	0xbef75172	-0.48304325
50	0x3eb13260	0.34608746
51	0x3eaecdfb	0.34141526
52	0xbf013837	-0.504764
53	0xb9f7eb4f	-0.0004728683
54	0x3e15350b	0.14571016
55	0x3e311e06	0.1729661
56	0xbe53c179	-0.20679273
57	0xbf09c4ec	-0.53816104
58	0x3d998d00	0.07497597
59	0x3e5c3ba7	0.2150713
60	0xbd436d1a	-0.04771147
61	0xbdb61b16	-0.08891885
62	0x3d11670a	0.035498656
63	0xbef30a5c	-0.4746884

encoder.layers.0.feed_forward_block.linear_1.weight f4 [16, 4]
0	0xbe743f94	-0.23852378
1	0xbd666ea0	-0.056257844
2	0xbe201637	-0.15633474
3	0x3e6ce143	0.23132806
4	0xbe81d73d	-0.25359526
5	0xbf09d3ef	-0.5383901
6	0xbe98f830	-0.29876852
7	0x3e6630c4	0.2247954
8	0xbe6b66e2	-0.22988465
9	0x3dd0039e	0.1015694
10	0xbede1b6a	-0.4338029
11	0x3de0ea51	0.10982192
12	0xbe6eecf6	-0.23332581
13	0xbeb2b207	-0.3490145
14	0x3e9d985e	0.3078031
15	0xbe55ae93	-0.20867376
16	0x3e3b16f9	0.18270482
17	0xbd15c0a5	-0.036560673
18	0xbdceb2ab	-0.10092672
19	0xbee8aec8	-0.45445848
20	0x3ecd13c1	0.40054134
21	0x3ed024bf	0.40653035
22	0xbed3e96e	-0.4138903
23	0x3dbcebfb	0.09224697
24	0x3b3490e7	0.002755219
25	0x3cec8208	0.028870597
26	0x3f0602fb	0.523483
27	0x3dce7949	0.10081727
28	0xbe5bcddc	-0.21465248
29	0xbea739d3	-0.32661304
30	0xbe2cf7f4	-0.16891462
31	0x3e30a539	0.17250527
32	0x3e7dffef	0.24804662
33	0x3ef4b654	0.47795355
34	0xbe77d9f8	-0.24204242
35	0xbe086b4e	-0.13322183
36	0x3e948fbb	0.29015908
37	0x3f0448d0	0.51673603
38	0xbeca3786	-0.39495486
39	0xbe858456	-0.26077527
40	0x3f0bffc3	0.54687136
41	0xbe2f99d2	-0.17148522
42	0xbe94e14a	-0.29078132
43	0xbeee3346	-0.46523494
44	0xbda52460	-0.080635786
45	0xbe697727	-0.2279936
46	0x3dc9e7b4	0.09858647
47	0xbedcf98e	-0.43159145
48	0xbe362d74	-0.17790776
49	0x3f0be1c7	0.54641384
50	0xbef362fc	-0.47536457
51	0x3e499497	0.19685589
52	0xbe72a918	-0.23697317
53	0xbef279c9	-0.4735854
54	0x3ec52c71	0.3851047
55	0x3ef40394	0.4765898
56	0xbefc3862	-0.49261767
57	0xbe99e8ee	-0.30060524
58	0x3ca9ce74	0.020728327
59	0xbe1c52ca	-0.15265957
60	0x3ec50f78	0.38488364
61	0xbc731728	-0.014837064
62	0xbecdb074	-0.40173686
63	0x3dffa082	0.12481786

encoder.layers.0.feed_forward_block.linear_1.bias f4 [16]
0	0x3ea018ab	0.3126882
1	0xbea02fd8	-0.31286502
2	0x3e7a2288	0.24427235
3	0x3e1e3a68	0.15451968
4	0x3e6fadc2	0.23406127
5	0xbe608bdc	-0.21928352
6	0x3e11479c	0.14187473
7	0x3ee6b416	0.4505927
8	0xbd24024f	-0.040041264
9	0x3ee7dd66	0.452861
10	0xbe15b7b7	-0.14620863
11	0x3edaf025	0.4276134
12	0x3ec4536c	0.38344896
13	0xbe3b27e9	-0.18276943
14	0xbea1cc6d	-0.31601277
15	0x3ea96580	0.3308525

encoder.layers.0.feed_forward_block.linear_2.weight f4 [4, 16]
0	0x3d24ffc2	0.040282972
1	0x3c89b83e	0.016811486
2	0xbdf755fd	-0.12076948
3	0x3d5718f5	0.052514035
4	0xbdb977c5	-0.09056047
5	0x3efc0b0b	0.49227175
6	0x3bfeccde	0.007775887
7	0xbcf0b1f5	-0.029381732
8	0xbecf3f4a	-0.40477973
9	0xbeccfe3f	-0.40037724
10	0xbefb60b3	-0.49097213
11	0xbde1712e	-0.110079154
12	0x3ecaa69c	0.39580238
13	0x3dbf0cc9	0.093286105
14	0xbe880404	-0.26565564
15	0x3dbd1e18	0.092342556
16	0xbf01989f	-0.50623506
17	0x3df986b0	0.12183893
18	0xbd9a7c4e	-0.075432405
19	0xbea9aa8e	-0.33137935
20	0xbe384c65	-0.17997892
21	0xbe1e9b53	-0.15488939
22	0xbe8e5043	-0.2779561
23	0xbce3f27d	-0.027825588
24	0xbeb0e1f2	-0.34547383
25	0xbed78266	-0.42091674
26	0x3d96289a	0.07331963
27	0x3d01856b	0.031621378
28	0xbedc3be2	-0.43014437
29	0x3c93039d	0.017946059
30	0xbe063ae6	-0.13108405
31	0x3ee34b1c	0.4439324
32	0xbe881574	-0.26578867
33	0xbee0c475	-0.43899885
34	0xbf09b2fc	-0.53788733
35	0x3f0c6fa2	0.5485784
36	0x3da812d8	0.08206719
37	0xbec6a8fa	-0.38800794
38	0xbf00792b	-0.5018489
39	0x3e97e88d	0.2966961
40	0xbe798f53	-0.2437108
41	0xbe70aadb	-0.23502676
42	0x3e7c6482	0.24647716
43	0x3ed34596	0.41264027
44	0x3df657f5	0.12028495
45	0x3ed54df7	0.41661045
46	0xbe82767f	-0.2548103
47	0xbde94338	-0.11389774
48	0xbf0be465	-0.5464538
49	0xbe929ab8	-0.28633666
50	0x3e382dae	0.17986175
51	0xbe7a74e2	-0.2445865
52	0x3e497171	0.1967218
53	0xbec46d79	-0.3836477
54	0x3ed89ec0	0.42308617
55	0xbe317f88	-0.17333806
56	0xbed7e282	-0.42165
57	0xbe7728d4	-0.24136668
58	0xbe9a7a5b	-0.30171475
59	0x3e97d8e6	0.29657668
60	0xbc043c56	-0.008071026
61	0xbe518da2	-0.20464185
62	0xbe039ee8	-0.12853587
63	0x3e07dd56	0.13268027

encoder.layers.0.feed_forward_block.linear_2.bias f4 [4]
0	0x3e101b78	0.14072978
1	0xbe47d7e7	-0.19515954
2	0x3d3a588a	0.045494594
3	0xbe5044b6	-0.20338711

encoder.layers.0.residual_connections.0.norm.alpha f4 [4]
0	0x3f7efad4	0.99601483
1	0x3f7ee579	0.995689
2	0x3f80654c	1.0030913
3	0x3f80a9dc	1.0051837

encoder.layers.0.residual_connections.0.norm.bias f4 [4]
0	0xbb82233b	-0.003971485
1	0xbb6ef049	-0.003645914
2	0x3b5d6a20	0.003378518
3	0x3ba35344	0.0049842913

encoder.layers.0.residual_connections.1.norm.alpha f4 [4]
0	0x3f805cfe	1.0028379
1	0x3f806207	1.0029916
2	0x3f7fd195	0.9992917
3	0x3f7fcdce	0.9992341

encoder.layers.0.residual_connections.1.norm.bias f4 [4]
0	0xbb704784	-0.003666372
1	0xbb94a358	-0.0045360737
2	0x3b829130	0.003984593
3	0x3aadc758	0.0013258262

encoder.layers.1.self_attention_block.w_q.weight f4 [16, 4]
0	0xbe9e04c1	-0.30863002
1	0xbeb2d275	-0.3492619
2	0xbee8a19e	-0.45435804
3	0x3efd9fc5	0.49535957
4	0xbd2e271a	-0.04251776
5	0x3ef23270	0.47304106
6	0xbdc4b2ac	-0.096043915
7	0xbecbc7df	-0.39800927
8	0xbf0480cc	-0.5175903
9	0x3c9548a2	0.01822311
10	0x3eba71f2	0.36415058
11	0x3ee9f5db	0.45695385
12	0x3e9ae30b	0.30251345
13	0xbd1bb530	-0.03801459
14	0x3e0c3abb	0.13694279
15	0xbe32e4de	-0.17470118
16	0xbf06d3ab	-0.5266673
17	0xbe769ed3	-0.24084024
18	0x3f08ec63	0.534857
19	0x3d64248f	0.055698927
20	0x3e843899	0.2582443
21	0x3e77e953	0.242101
22	0x3eebf327	0.46083948
23	0x3d22eed2	0.039778538
24	0x3f0670b6	0.52515733
25	0x3f045de7	0.51705784
26	0x3e7d3451	0.24726988
27	0x3e94899a	0.29011232
28	0xbc44e4ab	-0.012017409
29	0x3e71a273	0.23597126
30	0xbf09e073	-0.5385811
31	0xbee0c237	-0.43898174
32	0xbeba3bca	-0.3637374
33	0x3ec793d0	0.3897996
34	0xbc285dfe	-0.010276316
35	0x3e3f8cd3	0.18706064
36	0xbf0a8900	-0.54115295
37	0xbc168e96	-0.009189269
38	0xbecb3405	-0.39688125
39	0xbdd88ee1	-0.10574127
40	0xbe852277	-0.26002857
41	0xbf0a088d	-0.539193
42	0xbd4c5e96	-0.04989489
43	0x3e1bdc6f	0.15220807
44	0xbed448d4	-0.41461813
45	0x3e28b336	0.16474614
46	0x3da9f264	0.082981855
47	0x3f085d13	0.5326702
48	0xbe3bbf8a	-0.18334785
49	0xbcd2a775	-0.025714615
50	0xbf09e880	-0.5387039
51	0xbf08016e	-0.5312718
52	0xbb85c3da	-0.004082185
53	0xbea07bfa	-0.31344587
54	0xbf054bd1	-0.5206881
55	0xbea89923	-0.32929334
56	0x3de11c75	0.10991756
57	0xbee94424	-0.455598
58	0xbe56ac3d	-0.20964141
59	0xbe13b75b	-0.14425413
60	0x3f017c07	0.50579876
61	0x3db17cec	0.08666405
62	0xbe1f6465	-0.15565641
63	0xbdf86801	-0.12129212

encoder.layers.1.self_attention_block.w_k.weight f4 [16, 4]
0	0x3ec6aaff	0.38802335
1	0xbeb8f3b1	-0.36123422
2	0x3e53bb39	0.20676889
3	0xbe0d2162	-0.13782266
4	0x3ef596da	0.47966653
5	0xbeb2e7da	-0.34942514
6	0x3ed77830	0.42083883
7	0x3f0633ba	0.5242268
8	0x3e123138	0.14276588
9	0xbef7673f	-0.48320958
10	0x3cf3ec0f	0.029775647
11	0xbe9ae261	-0.30250838
12	0x3d026977	0.03183886
13	0xbe3960cd	-0.18103333
14	0x3e5afc83	0.21385388
15	0x3db49e68	0.08819276
16	0xbf070e4d	-0.52756196
17	0x3e61474b	0.21999852
18	0x3efc8e1b	0.49327168
19	0x3f0030f3	0.5007469
20	0x3e1c7357	0.15278374
21	0xbcb04cf8	-0.021521077
22	0x3e96c696	0.29448384
23	0x3ec7dc06	0.39035052
24	0x3f0c3ef2	0.54783547
25	0xbd1c3f98	-0.038146585
26	0x3eae8c34	0.34091341
27	0xbea81583	-0.32828912
28	0x3d9dcd55	0.077051796
29	0x3eeb79f8	0.45991492
30	0xbe61917e	-0.22028157
31	0x3e1daec6	0.15398702
32	0x3e9b2f6e	0.30309623
33	0xbe96a947	-0.29426023
34	0xbec81318	-0.39077067
35	0x3e1a2e19	0.15056647
36	0xbe2ee603	-0.1707993
37	0xbe20ff19	-0.15722312
38	0x3c3a3d4d	0.011367154
39	0xbd898f59	-0.067167945
40	0xbeb5b77b	-0.35491547
41	0xbeaa6a00	-0.33283997
42	0x3e73aa2f	0.23795389
43	0xbd0de079	-0.034637902
44	0x3e425f23	0.18981604
45	0x3eedc288	0.46437478
46	0x3edc4e2d	0.43028393
47	0xbd3880ca	-0.045044698
48	0xbd722034	-0.059112743
49	0x3d631550	0.055440247
50	0x3e5b373c	0.21407789
51	0xbee6ea41	-0.45100597
52	0xbe6f90b3	-0.23395042
53	0xbe989dfa	-0.29808027
54	0xbea08e46	-0.31358546
55	0xbe26f66c	-0.1630494
56	0xbe973c40	-0.29538155
57	0x3dcb3338	0.099218786
58	0xbdfc8d34	-0.1233162
59	0xbe9db4b3	-0.30801925
60	0x3d2a1322	0.041522153
61	0x3f06719b	0.525171
62	0xbe2f0fa0	-0.17095804
63	0x3dec7f6c	0.11547741

encoder.layers.1.self_attention_block.w_v.weight f4 [16, 4]
0	0x3ea77c86	0.3271219
1	0x3dfcb8e5	0.12339953
2	0x3da9ed79	0.082972474
3	0x3e1c5b72	0.15269259
4	0x3e170311	0.14747263
5	0x3dd46336	0.103704855
6	0xbc9e552c	-0.019327722
7	0xbde81b31	-0.11333311
8	0x3eccaf6b	0.39977583
9	0x3ea761ee	0.32691902
10	0x3d97e224	0.0741618
11	0xbe6b7709	-0.22994627
12	0x3eb68ef1	0.3565593
13	0xbef5b1ca	-0.47987205
14	0xbe1225c1	-0.14272214
15	0x3ee4d526	0.4469387
16	0x3ed2d200	0.41175842
17	0xbd460ce5	-0.04835214
18	0xbd01ae2d	-0.031660248
19	0xbdb829d3	-0.08992352
20	0x3ec60326	0.38674277
21	0x3dee056b	0.11622127
22	0x3ee71c19	0.45138624
23	0x3ea39aa5	0.31953922
24	0xbe83d4f3	-0.25748405
25	0xbef6a151	-0.4816995
26	0xbe8ca08a	-0.27466232
27	0xbea30331	-0.31838372
28	0x3d186c62	0.037212737
29	0x3ee1e893	0.44122753
30	0x3e911903	0.28339395
31	0x3ef3899b	0.47565922
32	0x3e99446b	0.2993501
33	0xbf014f6c	-0.50511813
34	0x3ec1497c	0.37751377
35	0x3e2ec536	0.17067418
36	0xbeb703d6	-0.35745114
37	0xbea05ac5	-0.31319252
38	0x3e60cf7e	0.21954152
39	0x3e89b2a4	0.26894104
40	0xbecac2bf	-0.39601704
41	0xbeab9f1a	-0.33519822
42	0x3eb51e34	0.35374606
43	0x3eed429a	0.46339875
44	0xbe6b5bac	-0.22984189
45	0xbec6d11c	-0.38831413
46	0xbe30133f	-0.17194842
47	0x3e906cc4	0.28207982
48	0xbe3164e4	-0.17323643
49	0x3e079b3f	0.13242815
50	0x3e3548d4	0.17703563
51	0xbe824c2d	-0.25448743
52	0x3d9c1932	0.07621993
53	0x3efb3bd4	0.49069083
54	0x3e018695	0.12648995
55	0x3ec00690	0.37505007
56	0x3eff93b9	0.4991739
57	0x3e12134d	0.14265175
58	0x3c1fdf5a	0.009757841
59	0xbede3ec9	-0.43407276
60	0xbe696fdd	-0.22796579
61	0x3cfb8a7f	0.030705689
62	0xbef7bc95	-0.48386064
63	0x3ea88205	0.32911697

encoder.layers.1.self_attention_block.w_o.weight f4 [4, 16]
0	0xbe92cbd0	-0.28671122
1	0x3f0648e7	0.5245499
2	0xbe83c7a3	-0.25738248
3	0xbee51410	-0.4474187
4	0xbe0eab0e	-0.1393244
5	0x3e47dfde	0.19518992
6	0xbc54862d	-0.012971443
7	0x3c211319	0.009831213
8	0xbe0ec90e	-0.13943884
9	0x3e8f97b2	0.28045422
10	0x3e31acea	0.17351118
11	0xbdf5da72	-0.12004556
12	0xbdebbc68	-0.11510545
13	0xbd1a9f81	-0.03774977
14	0x3eb1393e	0.34613985
15	0x3c9e6882	0.019336943
16	0x3ee535a6	0.44767493
17	0xbea347a2	-0.3189059
18	0x3f0c5782	0.54821026
19	0xbc1b2707	-0.009469754
20	0xbd721206	-0.05909922
21	0x3e3e4014	0.18579131
22	0x3e74fdad	0.23924895
23	0xbe3afbb8	-0.18260086
24	0xbe293e80	-0.16527748
25	0x3e84bf6c	0.25927293
26	0x3dfbfa4d	0.123036005
27	0x3dfc9446	0.123329684
28	0x3c8de536	0.01732121
29	0xbec48818	-0.3838508
30	0x3d0b21fa	0.03396795
31	0x3de888d1	0.11354221
32	0x3eafb121	0.34314826
33	0xbc33791b	-0.010954167
34	0x3e14eaf2	0.1454275
35	0xbef807dd	-0.484435
36	0x3e772c82	0.24138072
37	0xbeb8c5fd	-0.36088553
38	0xbebb0d6a	-0.36533672
39	0xbe6d11b4	-0.23151284
40	0x3e923baf	0.2856116
41	0x3ebff0aa	0.374883
42	0x3db3c72c	0.087782234
43	0x3ebaf9df	0.36518762
44	0x3eaf0db7	0.3419015
45	0x3d1fb3f0	0.03898996
46	0x3bbe25d7	0.0058028507
47	0xbeea41b6	-0.45753258
48	0x3cb7f967	0.022457791
49	0x3f002ff4	0.5007317
50	0x3ee0f102	0.43933874
51	0xbeb61ca8	-0.35568738
52	0x3e8c809c	0.2744187
53	0x3efcb22e	0.4935469
54	0xbdfaca6c	-0.1224564
55	0xbdd477f1	-0.103744395
56	0xbdffbf5c	-0.12487671
57	0xbe7ae70f	-0.24502204
58	0xbf09fed8	-0.53904486
59	0xbebae27a	-0.36500913
60	0x3d88f4ec	0.0668734
61	0xbdf6becd	-0.12048111
62	0xbce45b99	-0.027875708
63	0x3ea8922e	0.32924026

encoder.layers.1.feed_forward_block.linear_1.weight f4 [16, 4]
0	0xbe8dba67	-0.27681276
1	0x3ee94a3f	0.45564458
2	0xbdf5808b	-0.11987408
3	0x3e6d8b13	0.23197584
4	0x3e845809	0.25848415
5	0x3ea1f603	0.31633005
6	0xbd346601	-0.04404259
7	0xbec0e168	-0.3767197
8	0xbe1c6ae2	-0.15275148
9	0xbe982353	-0.2971445
10	0xbefea94c	-0.49738538
11	0x3e4bc218	0.1989826
12	0xbed6af40	-0.4193058
13	0xbed9f2b1	-0.4256797
14	0xbeb6623f	-0.3562183
15	0x3d92575e	0.0714557
16	0x3d830649	0.06397683
17	0xbe95cb63	-0.29256734
18	0x3e99e6f8	0.30059028
19	0x3ed6cbbd	0.41952315
20	0xbf07ec5f	-0.5309505
21	0x3e570f89	0.2100202
22	0xbd29b2f9	-0.041430447
23	0xbe6a3112	-0.22870281
24	0x3e88da8c	0.26729238
25	0x3ec1c873	0.37848243
26	0xbe30774f	-0.17233013
27	0xbd95717b	-0.07297035
28	0xbef20ff7	-0.47277805
29	0xbe938804	-0.2881471
30	0xbec67418	-0.38760448
31	0xbeaf001c	-0.3417977
32	0x3e705c76	0.23472771
33	0xbe848d3e	-0.2588901
34	0xbe5809ac	-0.2109744
35	0x3d5ce9dc	0.053933963
36	0xbee280eb	-0.44238982
37	0x3db98adb	0.09059688
38	0xbeb6e926	-0.35724753
39	0xbb817961	-0.003951237
40	0x3ef1d8a9	0.4723561
41	0xbb21fcd3	-0.0024717345
42	0xbe85177e	-0.25994486
43	0xbed4d5cd	-0.41569367
44	0x3eeac194	0.45850813
45	0x3e344c4a	0.17607227
46	0xbe62c19c	-0.22144169
47	0x3e0e7369	0.13911213
48	0x3eb441bc	0.352064
49	0xbec4a2a3	-0.38405332
50	0x3e85fa71	0.26167634
51	0xbd465ffd	-0.048431385
52	0xbe8b341d	-0.27188197
53	0x3e1d1e9d	0.1534371
54	0x3ebb6d86	0.36606997
55	0x3e8b40b5	0.27197805
56	0x3e120c5c	0.14262527
57	0x3e114ab7	0.14188658
58	0x3efc8f2c	0.4932798
59	0x3ef651af	0.48109195
60	0x3e43bce2	0.19115022
61	0xbdb363fa	-0.087593034
62	0x3e7a4204	0.24439245
63	0xbdc3085b	-0.09523078

encoder.layers.1.feed_forward_block.linear_1.bias f4 [16]
0	0x3ecc3dc8	0.39890885
1	0xbe48f874	-0.19626027
2	0x3ef3b443	0.47598466
3	0x3ed4753b	0.4149569
4	0x3e61ecaf	0.22062944
5	0x3f000b87	0.5001759
6	0xbda15316	-0.078771755
7	0x3e3b896c	0.18314141
8	0xbd9021f2	-0.070377246
9	0x3e818925	0.25299945
10	0xbed049c0	-0.40681267
11	0xbee4d38c	-0.44692647
12	0x3e32cbd0	0.17460561
13	0x3c99638c	0.018724225
14	0x3e8e82cd	0.27834168
15	0x3eb94d9f	0.36192033

encoder.layers.1.feed_forward_block.linear_2.weight f4 [4, 16]
0	0xbee539a7	-0.44770548
1	0xbe1bb528	-0.15205824
2	0x3e18739b	0.1488785
3	0x3ee88a7b	0.45418152
4	0x3edf5a01	0.43623355
5	0x3d9905e5	0.074718274
6	0xbe90bb76	-0.2826802
7	0x3ef1a97b	0.47199616
8	0x3ef63931	0.4809051
9	0x3e5660f7	0.20935427
10	0x3e882282	0.26588827
11	0x3ec33736	0.3812806
12	0xbe4e6900	-0.20157242
13	0xbec795a3	-0.3898135
14	0x3e35b163	0.17743449
15	0x3e6b85b4	0.23000222
16	0xbea654ce	-0.32486576
17	0xbf0257a2	-0.5091497
18	0x3ef999a5	0.48750034
19	0xbd61bd27	-0.05511203
20	0x3ec564d4	0.38553488
21	0x3ebda454	0.37039435
22	0x3ef9c0fa	0.48780042
23	0x3dd3e1de	0.10345815
24	0x3c8e0051	0.017334135
25	0x3e3a38ba	0.18185702
26	0x3e856382	0.2605248
27	0xbed0e7e4	-0.40801919
28	0x3ef89dc2	0.4855786
29	0xbed4c23e	-0.41554445
30	0xbe8c18d6	-0.27362698
31	0x3e9a48d4	0.30133688
32	0x3ebb46d1	0.36577466
33	0x3eb82df5	0.35972562
34	0x3ea72d26	0.32651633
35	0x3e1b8161	0.15186073
36	0xbd47702c	-0.04869096
37	0x3d200ba0	0.039073586
38	0x3e375956	0.17905173
39	0xbeeadc17	-0.4587104
40	0xbef7f843	-0.48431596
41	0xbdacf1c0	-0.08444548
42	0x3e0360db	0.12829916
43	0x3dddc448	0.10828453
44	0x3e61712e	0.22015831
45	0x3ec53b4b	0.385218
46	0xbe0fec66	-0.14055023
47	0xbef3122b	-0.474748
48	0xbc3725d6	-0.011178454
49	0xbe6164fd	-0.2201118
50	0xbe149980	-0.1451168
51	0xbf090d81	-0.5353623
52	0x3e435068	0.19073641
53	0xbdf88492	-0.12134661
54	0x3e7c47e8	0.24636805
55	0x3d6611ec	0.056169435
56	0x3ef17188	0.4715693
57	0x3eb35f82	0.35033804
58	0x3e82a90f	0.25519606
59	0x3e8a19c2	0.26972777
60	0x3ec4647b	0.3835791
61	0x3e7139cb	0.23557203
62	0x3ecfd180	0.40589523
63	0xbeb9e4cb	-0.36307368

encoder.layers.1.feed_forward_block.linear_2.bias f4 [4]
0	0xbe60e5e3	-0.21962695
1	0x3d9b2032	0.075745
2	0xbe66d5b3	-0.22542457
3	0x3e5bf84d	0.21481438

encoder.layers.1.residual_connections.0.norm.alpha f4 [4]
0	0x3f807e99	1.0038635
1	0x3f808380	1.0040131
2	0x3f809980	1.0046844
3	0x3f806584	1.003098

encoder.layers.1.residual_connections.0.norm.bias f4 [4]
0	0xbb89f4d6	-0.004210095
1	0xbb849178	-0.0040456615
2	0x3b987908	0.0046531
3	0x3b798bbc	0.0038077673

encoder.layers.1.residual_connections.1.norm.alpha f4 [4]
0	0x3f7ff92d	0.9998959
1	0x3f8059d5	1.0027415
2	0x3f7ede9b	0.9955842
3	0x3f80757b	1.0035852

encoder.layers.1.residual_connections.1.norm.bias f4 [4]
0	0xbb8d18b9	-0.0043059257
1	0xbaaa00bd	-0.0012970191
2	0xbb90648d	-0.004406518
3	0xbb418ec5	-0.002953456

encoder.layers.2.self_attention_block.w_q.weight f4 [16, 4]
0	0xbd6eebc8	-0.058330327
1	0x3ee4a6b5	0.44658437
2	0xbc9d2439	-0.019182311
3	0xbf0b6da6	-0.54464185
4	0x3ec713a2	0.38882166
5	0xbdb204aa	-0.08692296
6	0x3ed1caac	0.4097494
7	0xbec67c8a	-0.3876689
8	0xbd595343	-0.05305792
9	0xbec8d516	-0.39225072
10	0x3d5cf5a8	0.053945214
11	0xbedeb60e	-0.43498272
12	0xbeef643e	-0.46756166
13	0x3ecefe91	0.40428594
14	0xbd1e0c46	-0.038585924
15	0x3e5113ba	0.20417681
16	0x3ecbbcac	0.39792383
17	0xbf0aa2ed	-0.54154855
18	0x3cc9cb80	0.02463317
19	0x3ecd27a8	0.40069318
20	0xbd97d24c	-0.07413158
21	0x3e886540	0.26639748
22	0x3f07893f	0.52943796
23	0xbe136993	-0.14395742
24	0x3efb60e9	0.49097374
25	0xbee36409	-0.44412258
26	0x3ea1b8c5	0.3158628
27	0x3f06366b	0.52426785
28	0x3f06c215	0.52639896
29	0x3dc83b10	0.0977689
30	0xbf02f6d9	-0.5115791
31	0xbe6fd631	-0.23421551
32	0x3d6175c1	0.05504394
33	0xbefa954a	-0.48942024
34	0xbeba947d	-0.36441413
35	0x3e0ffda9	0.14061607
36	0xbea8d789	-0.3297694
37	0xbef33509	-0.475014
38	0x3bd52c45	0.0065055215
39	0x3eb33cf8	0.35007453
40	0x3e5ae0a6	0.21374759
41	0xbeb561bf	-0.35426137
42	0xbec1745a	-0.37784082
43	0x3ec98733	0.3936096
44	0xbe45f9f3	-0.1933363
45	0xbeb985fa	-0.36235029
46	0xbf0adec9	-0.54246193
47	0xbe0a07a1	-0.13479473
48	0x3c918c0f	0.01776698
49	0xbe0e6197	-0.13904415
50	0x3e8b2f76	0.27184647
51	0x3e78e600	0.24306488
52	0x3f0079d8	0.5018592
53	0xbef83bb0	-0.48483038
54	0x3e6bf59b	0.2304291
55	0x3ecd89b8	0.40144134
56	0x3efb2ded	0.49058476
57	0x3e8b146c	0.27164018
58	0xbe0d141d	-0.13777204
59	0x3ef3c993	0.47614726
60	0x3e86fe50	0.263659
61	0x3d918d00	0.07106972
62	0x3ceba562	0.028765384
63	0xbbe9eccb	-0.0071388236

encoder.layers.2.self_attention_block.w_k.weight f4 [16, 4]
0	0x3e1e1405	0.15437324
1	0x3e1c34e8	0.15254557
2	0xbe39bfb5	-0.18139537
3	0xbe272360	-0.16322088
4	0x3ef8615c	0.4851178
5	0x3f012e6b	0.50461453
6	0x3e9aa53d	0.30204192
7	0xbec22937	-0.3792207
8	0xbeac8810	-0.33697557
9	0xbe152d26	-0.14568004
10	0xbec3681f	-0.38165376
11	0x3e10e13d	0.14148422
12	0xbeda2e5f	-0.42613503
13	0xbf0623b4	-0.5239823
14	0x3ef9cdfa	0.4878996
15	0x3e524934	0.20535737
16	0xbe83ab57	-0.2571666
17	0xbee0359b	-0.43790898
18	0xbef30835	-0.474672
19	0x3efce196	0.49390858
20	0xbf088fd6	-0.53344476
21	0x3f058f27	0.5217156
22	0x3e0ddaac	0.13852948
23	0x3ee9bf38	0.456537
24	0xbeebed19	-0.4607933
25	0x3ec927da	0.39288217
26	0xbdcc5b5d	-0.09978364
27	0x3da736cd	0.08164749
28	0xbe7cd156	-0.2468923
29	0x3edbc504	0.42923748
30	0xbebdd6ed	-0.37078038
31	0xbe83fa93	-0.2577711
32	0xbf004607	-0.50106853
33	0xbc5e566a	-0.013570407
34	0x3ef97249	0.48720005
35	0x3db12519	0.08649654
36	0x3edb6814	0.42852843
37	0x3d633d57	0.05547842
38	0xbea19f47	-0.3156683
39	0xbed7b13f	-0.42127416
40	0xbec9f354	-0.39443457
41	0xbcfe1de5	-0.031020114
42	0x3e95f6aa	0.29289752
43	0xbe98fe8a	-0.29881698
44	0xbeec6af1	-0.4617534
45	0x3e87c9a4	0.26521027
46	0xbd976f0c	-0.073942274
47	0xbc2c64e3	-0.0105221
48	0xbe882fac	-0.2659887
49	0x3eb41c13	0.3517767
50	0x3dbf3475	0.09336177
51	0xbed04a73	-0.406818
52	0xbe8a1cf3	-0.26975212
53	0xbddae272	-0.10687722
54	0xbe9c052d	-0.304727
55	0x3ebe583a	0.37176687
56	0x3f0411a6	0.5158943
57	0x3edd9a41	0.4328175
58	0x3ed1a6fd	0.40947714
59	0x3e3cbeee	0.18432209
60	0x3e16f597	0.14742123
61	0x3e58aea4	0.2116037
62	0x3d4da2c7	0.050204065
63	0xbef86012	-0.48510796

encoder.layers.2.self_attention_block.w_v.weight f4 [16, 4]
0	0xbed52ac8	-0.41634202
1	0xbe9453d2	-0.289702
2	0x3bfdbd70	0.00774353
3	0x3f07d4a9	0.5305887
4	0x3eb3d1e3	0.35121068
5	0x3dbf3427	0.09336119
6	0x3e5b23a9	0.21400322
7	0xbe93c494	-0.28860915
8	0xbeb9515e	-0.3619489
9	0xbe799e4e	-0.24376795
10	0xbe89ea2c	-0.2693647
11	0xbe06652e	-0.13124534
12	0xbeb099c7	-0.34492323
13	0xbe974f4a	-0.2955268
14	0x3efb8810	0.49127245
15	0xbe2741a0	-0.16333628
16	0x3f00cc97	0.5031218
17	0xbd84574a	-0.064619616
18	0x3f019776	0.50621736
19	0x3e43cae0	0.1912036
20	0x3eb9bdab	0.36277518
21	0xbe893048	-0.26794648
22	0xbc79345e	-0.015210239
23	0x3f0a3ccd	0.53999025
24	0xbf03da0f	-0.51504606
25	0xbeb53e8a	-0.35399276
26	0xbefaffca	-0.49023277
27	0xbf02483f	-0.5089149
28	0x3eee1446	0.46499842
29	0xbec850c3	-0.39124116
30	0x3e83e499	0.25760344
31	0x3e674881	0.22586252
32	0xbe4bda4d	-0.19907494
33	0xbe2e6fc4	-0.17034823
34	0xbeec31b9	-0.46131685
35	0x3e5e4956	0.21707663
36	0xbe8a2db6	-0.26988
37	0x3e3baede	0.18328425
38	0x3da52443	0.08063557
39	0xbeef0dbc	-0.46690166
40	0xbea2141f	-0.31655976
41	0x3e97bf48	0.29638124
42	0xbf055f92	-0.52098954
43	0xbecf98bc	-0.40546215
44	0xbdd9f45d	-0.10642312
45	0x3f09b187	0.5378651
46	0x3e9ae73b	0.3025454
47	0x3ecdc02e	0.40185684
48	0x3e464955	0.19363911
49	0x3e40415d	0.18774934
50	0xbefbd126	-0.49183005
51	0xbeab7fcb	-0.33495936
52	0x3e1c1d54	0.15245563
53	0x3ec25642	0.37956434
54	0x3d97b34d	0.07407246
55	0x3efdee04	0.49595654
56	0xbe8f6c9b	-0.28012547
57	0x3e949062	0.29016405
58	0x3ec3e80c	0.38262975
59	0x3ee5fb65	0.4491836
60	0xbeaf704d	-0.34265366
61	0xbeb80028	-0.3593762
62	0xbddd0a39	-0.107929654
63	0xbddbc9a2	-0.10731818

encoder.layers.2.self_attention_block.w_o.weight f4 [4, 16]
0	0x3bce93c1	0.0063042347
1	0xbc4d3b4a	-0.012526343
2	0xbdbb0db5	-0.09133474
3	0x3ec15e79	0.3776739
4	0x3f023a83	0.5087053
5	0x3acab6e9	0.0015465888
6	0xbe2abbff	-0.16673277
7	0xbd8df6e4	-0.06931856
8	0xbefdd3a6	-0.49575537
9	0x3e2468ee	0.16055652
10	0xbe83b38d	-0.25722924
11	0x3a608e8f	0.0008566165
12	0x3eb743d6	0.35793942
13	0x3ca9f6ae	0.020747509
14	0xbf024acb	-0.50895375
15	0xbe3fee90	-0.18743348
16	0x3ea01168	0.3126328
17	0x3cd1d5e3	0.025614684
18	0x3ecd1c2f	0.40060565
19	0xbf061950	-0.52382374
20	0x3f096f9f	0.53685945
21	0x3e8d17f7	0.27557346
22	0x3f09034c	0.53520656
23	0x3e13889d	0.14407583
24	0xbedbb2ae	-0.4290976
25	0xbefc5dcb	-0.49290308
26	0xbe53f525	-0.20698984
27	0xbe832658	-0.2561519
28	0x3e8ba774	0.27276194
29	0x3ef453fc	0.47720325
30	0xbeecab21	-0.4622431
31	0xbece84ac	-0.40335596
32	0xbebe40f6	-0.37158936
33	0xbdda2eda	-0.106534675
34	0xbeddf45f	-0.43350503
35	0xbea6855d	-0.32523623
36	0x3b979054	0.0046253596
37	0xbf050fa0	-0.51976967
38	0x3ebc2584	0.36747372
39	0xbcba0304	-0.022706516
40	0x3e4ed2f9	0.20197667
41	0xbe1d2519	-0.15346183
42	0xbdedc16a	-0.116091564
43	0xbe08b070	-0.13348556
44	0x3e387f4a	0.18017307
45	0x3ee5bc4c	0.44870222
46	0x3e9ee1ee	0.31031746
47	0x3dc111b1	0.094272025
48	0x3e93b247	0.28846952
49	0x3e8325ec	0.2561487
50	0x3ebb6e32	0.3660751
51	0x3e3f40d1	0.18677069
52	0xbf08d2de	-0.5344676
53	0xbdd4397c	-0.10362527
54	0x3e1f21d8	0.15540254
55	0xbcb7570c	-0.022380374
56	0x3e43c98b	0.19119851
57	0x3e81f2c4	0.25380528
58	0xbeb8783b	-0.3602923
59	0xbee1ed57	-0.44126388
60	0x3ef16528	0.4714749
61	0xbe21b5a9	-0.15791954
62	0x3efa8092	0.48926216
63	0xbd96300c	-0.07333383

encoder.layers.2.feed_forward_block.linear_1.weight f4 [16, 4]
0	0xbea6ca47	-0.325762
1	0xbd54c4f5	-0.051945645
2	0xbea0ca1f	-0.31404206
3	0xbdd47bc4	-0.10375169
4	0x3f0ab96a	0.5418917
5	0x3e27cc37	0.16386496
6	0x3ec075ce	0.37589878
7	0xbc5d07b7	-0.013490609
8	0xbec0babf	-0.37642476
9	0x3f04d98d	0.51894456
10	0xbe336e87	-0.17522632
11	0x3d8e4b7c	0.06947991
12	0xbe9212aa	-0.28529865
13	0x3e87701c	0.2645272
14	0x3de02798	0.10945052
15	0xbcb89375	-0.02253125
16	0x3e083632	0.13301924
17	0xbd8e15ec	-0.06937775
18	0x3d9525bd	0.07282589
19	0xbbcfe267	-0.006344128
20	0xbe9f1948	-0.31073976
21	0xbcfa2ea5	-0.03053982
22	0xbeeab5a4	-0.45841706
23	0x3ec6a69b	0.38798985
24	0xbe7bb65c	-0.24581283
25	0x3ec8f745	0.39251152
26	0x3f060bb5	0.52361614
27	0xbef5d0ba	-0.48010808
28	0xbe6572bd	-0.2240705
29	0x3e8723c7	0.26394483
30	0x3ec2997b	0.3800772
31	0x3ef926b5	0.48662344
32	0x3ef400ce	0.47656864
33	0x3ecd2919	0.40070418
34	0xbea9efba	-0.3319071
35	0x3f02f99e	0.51162136
36	0xbf03a240	-0.5141945
37	0x3e270991	0.16312243
38	0xbefd9937	-0.49530956
39	0x3f05e07b	0.52295655
40	0xbe5d2f9d	-0.21600194
41	0x3eac8586	0.3369562
42	0xbecfeac4	-0.406088
43	0xbe641f37	-0.22277533
44	0x3ea5ada3	0.32359037
45	0xbe07adae	-0.13249847
46	0x3eeb2192	0.4592405
47	0x3efb082c	0.49029672
48	0xbc1977f9	-0.009366983
49	0x3e97b353	0.29629
50	0xbdc5ebce	-0.09664117
51	0xbe7a6f5f	-0.24456547
52	0xbde5293b	-0.11189505
53	0xbdc1f0a9	-0.094697304
54	0x3d29d3d4	0.04146178
55	0x3ec8dce5	0.3923103
56	0x3d9be83c	0.076126546
57	0x3e963ca1	0.2934313
58	0xbed5af10	-0.41735125
59	0xbe570c0b	-0.21000688
60	0x3e8a2a50	0.26985407
61	0x3e8dcb72	0.2769428
62	0x3ec87071	0.39148286
63	0x3e165dd7	0.14684235

encoder.layers.2.feed_forward_block.linear_1.bias f4 [16]
0	0xbeff0ca4	-0.49814332
1	0x3ec7f9f6	0.39057893
2	0xbc1b23f2	-0.009469019
3	0xbe6b313b	-0.22967999
4	0xbe21d63b	-0.15804379
5	0xbd5b1148	-0.053483278
6	0x3e468765	0.19387586
7	0x3d2791e3	0.040910613
8	0xbed7a12f	-0.4211516
9	0x3edae574	0.42753184
10	0xbde74c09	-0.112937994
11	0xbe42fcdf	-0.19041775
12	0xbe854e3f	-0.2603626
13	0x3dce7101	0.100801475
14	0xbec893be	-0.39175218
15	0x3ed12122	0.4084559

encoder.layers.2.feed_forward_block.linear_2.weight f4 [4, 16]
0	0x3e8bf4fb	0.27335343
1	0x3eaa2c61	0.33236983
2	0x3eb33f1e	0.35009092
3	0xbc9f7c28	-0.019468382
4	0xbe03cb52	-0.1287053
5	0xbe4f5efe	-0.2025108
6	0x3f062d6d	0.52413064
7	0x3eb0638d	0.3445095
8	0xbe323d92	-0.174063
9	0xbd9aa297	-0.07550543
10	0xbe46635b	-0.19373839
11	0xbd35daad	-0.044398
12	0xbf01fc3f	-0.5077552
13	0xbe591900	-0.21200943
14	0xbd2334f2	-0.039845414
15	0x3e0980f3	0.13428096
16	0x3ea863ea	0.32888728
17	0x3e5ba352	0.2144902
18	0x3e727a6a	0.2367951
19	0xbee3fa4f	-0.44526908
20	0xbece3736	-0.40276498
21	0x3ea6f114	0.32605803
22	0xbe6900eb	-0.22754256
23	0xbe987148	-0.29773927
24	0x3ec30518	0.38089824
25	0x3ec53fc0	0.385252
26	0x3ee55dbb	0.44798073
27	0xbeabd0a7	-0.33557627
28	0xbe7b2580	-0.24526024
29	0x3ecbf290	0.39833498
30	0xbf0bf59d	-0.5467165
31	0xbf07a923	-0.5299246
32	0x3e9c366f	0.3051028
33	0xbdb5837d	-0.0886297
34	0xbea3f183	-0.32020196
35	0x3c6d9900	0.01450181
36	0x3f057279	0.52127796
37	0xbe16f889	-0.14743246
38	0x3ebfe44a	0.37478858
39	0xbe339ef5	-0.17541106
40	0xbe97b902	-0.29633337
41	0x3eaebb55	0.34127298
42	0x3e2bc74b	0.16775243
43	0xbccb8a75	-0.024846295
44	0xbeae4de1	-0.34043792
45	0x3ec3c873	0.38238868
46	0x3eb4159f	0.35172746
47	0xbd095f8a	-0.03353838
48	0x3f0bcf84	0.5461352
49	0x3eff710b	0.49890932
50	0xbeb17a4d	-0.3466362
51	0xbd73af6f	-0.05949348
52	0xbd7079ff	-0.058710095
53	0xbec8badd	-0.39205065
54	0x3edfe766	0.4373123
55	0x3e0fb39a	0.14033356
56	0xbe035eb0	-0.12829089
57	0xbe0e0ab5	-0.13871272
58	0xbe5cdcc6	-0.21568593
59	0xbe75f0b2	-0.24017599
60	0x3d9fa359	0.07794828
61	0x3ddd2f23	0.10800006
62	0x3e7a0957	0.24417625
63	0xbd2d9b6d	-0.042384554

encoder.layers.2.feed_forward_block.linear_2.bias f4 [4]
0	0x3b89083e	0.0041818907
1	0x3ddb2f24	0.10702351
2	0x3b4233f2	0.0029633013
3	0xbe6c2407	-0.23060618

encoder.layers.2.residual_connections.0.norm.alpha f4 [4]
0	0x3f7f469c	0.99717116
1	0x3f7ecbca	0.9952971
2	0x3f80a81a	1.00513
3	0x3f8077f5	1.0036608

encoder.layers.2.residual_connections.0.norm.bias f4 [4]
0	0x3b24b04f	0.0025129502
1	0x3b9fb723	0.0048741265
2	0x3ba9c611	0.005181082
3	0xbb6c2930	-0.0036035292

encoder.layers.2.residual_connections.1.norm.alpha f4 [4]
0	0x3f807189	1.0034648
1	0x3f7ed92d	0.99550134
2	0x3f808cdc	1.0042987
3	0x3f80564f	1.0026339

encoder.layers.2.residual_connections.1.norm.bias f4 [4]
0	0x3b603de2	0.0034216573
1	0x3b9001c9	0.004394744
2	0x3b94d155	0.004541556
3	0xbb6f5e9b	-0.0036524895

encoder.layers.3.self_attention_block.w_q.weight f4 [16, 4]
0	0x3f01e299	0.50736386
1	0x3efd4e03	0.4947358
2	0xbee76678	-0.45195365
3	0x3ea90bf2	0.33016926
4	0x3eec2f91	0.4613004
5	0x3ee70635	0.45121923
6	0xbe393ef0	-0.18090415
7	0xbe2fef7c	-0.171812
8	0x3ea7c1ce	0.3276505
9	0xbe66da46	-0.22544202
10	0x3e09ec2d	0.13469
11	0x3ed244e8	0.41068196
12	0xbedabe12	-0.42723137
13	0x3e7f28d5	0.2491792
14	0x3e8f78ff	0.28022
15	0xbeeffb8c	-0.46871603
16	0xbd376686	-0.04477551
17	0x3e7cf21b	0.24701731
18	0x3ed77065	0.42077938
19	0x3ef33181	0.47498706
20	0x3ef467ea	0.4773553
21	0xbeb41df0	-0.3517909
22	0x3e24491e	0.16043517
23	0xbf01dec9	-0.5073057
24	0xbe36e6d1	-0.17861487
25	0x3ee613a6	0.44936866
26	0x3e0f164d	0.13973351
27	0xbe29d785	-0.1658612
28	0x3e9f0707	0.3106005
29	0x3e00d8af	0.12582658
30	0x3e4d8749	0.20071138
31	0x3e5e0aaf	0.21683763
32	0xbdc34c1a	-0.095359996
33	0xbe0837c9	-0.1330253
34	0xbd6cb2a0	-0.057787538
35	0x3edb60ea	0.42847377
36	0xbf023515	-0.50862247
37	0xbda54191	-0.080691464
38	0xbef01c33	-0.46896514
39	0xbf008b24	-0.5021231
40	0x3f00fc5d	0.50385076
41	0xbd41f383	-0.04735137
42	0x3ec70fb1	0.3887916
43	0x3f0306e8	0.51182413
44	0xbf02e693	-0.5113308
45	0x3e7f0fbf	0.2490835
46	0xbebc0fe7	-0.36730883
47	0x3e93aad5	0.28841272
48	0x3efc2bb3	0.4925209
49	0x3e44b2f2	0.19208887
50	0x3f017f5f	0.5058498
51	0xbe88c60b	-0.26713595
52	0x3e334e22	0.17510274
53	0x3ef7cc9f	0.483983
54	0xbc9b896f	-0.018986432
55	0x3db44d0e	0.088037595
56	0x3ee8f0d6	0.45496243
57	0x3e77d492	0.24202183
58	0xbd07115f	-0.03297555
59	0xbe6bb5dc	-0.23018593
60	0xbee2ed7b	-0.44321808
61	0xbdc0fbee	-0.09423052
62	0x3edb7fdd	0.4287099
63	0x3edadcc2	0.4274655

encoder.layers.3.self_attention_block.w_k.weight f4 [16, 4]
0	0x3e91e903	0.28498086
1	0xbda4fc94	-0.08055988
2	0xbee412c8	-0.4454558
3	0xbed1ff07	-0.41014883
4	0xbea403a4	-0.32034028
5	0x3ec77993	0.3895994
6	0xbe21d4f1	-0.15803887
7	0xbeb9ea98	-0.36311793
8	0x3eecda67	0.46260378
9	0x3f03aeb5	0.51438457
10	0x3e1beb2d	0.15226431
11	0xbd168540	-0.03674817
12	0xbe878f88	-0.26476693
13	0x3e1b06a7	0.15139256
14	0xbcca5378	-0.024698004
15	0x3ed1f326	0.4100582
16	0xbd9cdfe1	-0.07659889
17	0xbdd76259	-0.10516805
18	0x3f014d28	0.50508356
19	0x3e224d71	0.15849854
20	0x3e9e9ae7	0.30977556
21	0x3e55b8f8	0.20871341
22	0xbe1ab5c7	-0.15108405
23	0x3e6b122a	0.22956148
24	0xbea23c9e	-0.31686872
25	0x3ee9bb5a	0.4565075
26	0x3c715d04	0.014731649
27	0x3c029e20	0.00797227
28	0x3a5b21ad	0.0008359205
29	0xbce3e5e4	-0.027819581
30	0xbd5aec9e	-0.053448312
31	0x3ec3f8ce	0.3827576
32	0x3ed1d9c3	0.40986452
33	0x3ef75c96	0.48312825
34	0x3e8b4abc	0.27205455
35	0xbe52685d	-0.20547624
36	0xbe0cad36	-0.1373795
37	0xbeb35333	-0.35024413
38	0x3e1c408e	0.15259
39	0x3e9f304f	0.31091544
40	0x3e92004a	0.28515846
41	0x3e70a1ce	0.23499224
42	0xbc9ac185	-0.018891105
43	0x3e40802e	0.18798897
44	0xbe1a29c8	-0.15055001
45	0x3e4d3e4e	0.20043299
46	0xbf03a8a0	-0.51429176
47	0xbbc7e1cb	-0.0060999147
48	0x3f0729be	0.5279807
49	0x3dfdce7a	0.12392898
50	0xbf0707f7	-0.5274653
51	0x3e6ac298	0.22925794
52	0x3e854a68	0.2603333
53	0x3ed7b7e1	0.42132476
54	0xbf05685b	-0.5211236
55	0x3e539eaf	0.20666002
56	0xbe632b91	-0.22184588
57	0x3e8a7fd3	0.27050647
58	0xbe330fb6	-0.17486462
59	0x3e7660f0	0.24060416
60	0xbd920fb6	-0.07131903
61	0xbb9450a1	-0.0045262133
62	0xbe9f2c53	-0.31088504
63	0x3ec40930	0.3828826

encoder.layers.3.self_attention_block.w_v.weight f4 [16, 4]
0	0xbecefdd9	-0.40428045
1	0xbee78d98	-0.45225215
2	0x3d339ced	0.043850828
3	0x3d47aa95	0.048746664
4	0x3dd795fe	0.105266556
5	0x3f04f759	0.5193992
6	0x3ed287e3	0.41119298
7	0x3e1f4fa1	0.1555772
8	0x3e7ed746	0.24886808
9	0x3e2c8a08	0.1684953
10	0xbeafaa94	-0.34309828
11	0x3e1d8c16	0.1538547
12	0xbd5a0675	-0.053228814
13	0x3e0b1769	0.13583149
14	0xbec3ab20	-0.38216496
15	0xbe3d5ef4	-0.18493253
16	0xbe09c6dd	-0.13454767
17	0xbf01d05b	-0.5070855
18	0x3e01854a	0.12648502
19	0xbd93104c	-0.07180843
20	0xbe72c7c1	-0.23709013
21	0xbd789d8e	-0.06069713
22	0x3d6d6569	0.05795804
23	0x3e3250ba	0.17413607
24	0x3effab3a	0.49935323
25	0x3eb00eec	0.34386384
26	0xbebb3813	-0.3656622
27	0x3ebaffe6	0.3652336
28	0xbde40cf3	-0.11135282
29	0x3f09950a	0.5374304
30	0x3dfc4892	0.12318529
31	0xbeb195a6	-0.34684485
32	0xbe297e6a	-0.1655213
33	0xbd968f48	-0.073515475
34	0xbe6e41f6	-0.2326735
35	0xbe0751d2	-0.13214806
36	0xbedd9b5b	-0.4328259
37	0xbea7ad22	-0.32749277
38	0x3ef6082b	0.48053107
39	0x3ef2da4f	0.4743218
40	0x3ec54989	0.38532665
41	0xbe9b887a	-0.3037756
42	0xbe09a911	-0.134434
43	0xbef94e27	-0.48692438
44	0xbe868502	-0.26273352
45	0x3f06fc56	0.52728784
46	0xbef7f08a	-0.48425704
47	0xbdca6f4c	-0.098845094
48	0xbf05e037	-0.5229525
49	0xbe5ced5f	-0.21574925
50	0xbd5309c5	-0.05152299
51	0xbeee833d	-0.46584502
52	0xbee9119f	-0.45521256
53	0xbe1989e8	-0.14994013
54	0x3f070458	0.52741003
55	0x3ee96945	0.45588127
56	0xbef54b44	-0.47908986
57	0xbe5b87e1	-0.21438552
58	0xbe919826	-0.28436393
59	0xbf024272	-0.5088264
60	0xbe806251	-0.2507501
61	0x3e95f38d	0.29287377
62	0x3d53109c	0.05152951
63	0x3c3a4ada	0.011370385

encoder.layers.3.self_attention_block.w_o.weight f4 [4, 16]
0	0xbe207374	-0.15669042
1	0xbe83e182	-0.25757986
2	0xbeb34616	-0.3501441
3	0xbe09dbd2	-0.13462761
4	0x3ed5c936	0.41755074
5	0xbf02a940	-0.51039505
6	0xbe063312	-0.1310542
7	0x3e71081e	0.23538253
8	0xbe9b450d	-0.3032612
9	0xbe105548	-0.14095032
10	0x3ed7c8e1	0.42145446
11	0x3ef12a8d	0.47102776
12	0xbe81d1cf	-0.25355384
13	0x3e4b15e0	0.19832563
14	0xbdc131cd	-0.09433327
15	0x3e4bacdb	0.19890158
16	0xbee6d8e2	-0.45087343
17	0x3e64d209	0.22345747
18	0x3e617c46	0.22020063
19	0x3ed715b6	0.42008752
20	0xbe14028c	-0.14454097
21	0x3e94fbcf	0.29098365
22	0x3e8cffd2	0.27538925
23	0xbedf9b1c	-0.43673027
24	0xbf0a253c	-0.53963065
25	0x3e13f601	0.14449312
26	0xbe3ccd3f	-0.1843767
27	0xbec927a7	-0.39288065
28	0xbd4e112c	-0.050309345
29	0xbee73d9a	-0.45164186
30	0x3d550f73	0.052016687
31	0x3e1b55c8	0.15169442
32	0xbf093f37	-0.53612083
33	0xbe65648c	-0.22401637
34	0xbd864b00	-0.06557274
35	0x3ed6c861	0.41949752
36	0xbeea5ff2	-0.45776325
37	0x3d2dd3c1	0.042438272
38	0xbebcd523	-0.3688136
39	0x3f0b8d3b	0.54512376
40	0xbdea9468	-0.114540875
41	0x3f067eb2	0.5253707
42	0xbd10af29	-0.035323296
43	0xbee3596b	-0.44404158
44	0x3d9c2546	0.07624297
45	0xbede71d7	-0.43446228
46	0xbcc74b57	-0.024327917
47	0x3ecbdeff	0.3981857
48	0xbe77d086	-0.24200639
49	0xbe1131b9	-0.14179124
50	0xbe8dba69	-0.27681282
51	0xbd75ca91	-0.060007636
52	0xbe914acc	-0.28377378
53	0xbf078fc5	-0.5295375
54	0x3ee5ebad	0.4490637
55	0x3ddbe316	0.107366726
56	0x3d87432e	0.066046104
57	0xbd056357	-0.03256544
58	0xbc32608d	-0.010887277
59	0x3e0f9114	0.14020187
60	0x3f09ae7a	0.53781855
61	0x3e057e9b	0.13036577
62	0xbc9bb84f	-0.019008784
63	0xbf0a5c63	-0.5404722

encoder.layers.3.feed_forward_block.linear_1.weight f4 [16, 4]
0	0xbe3d27ee	-0.18472263
1	0xbef72ea7	-0.4827778
2	0x3e730ffc	0.23736566
3	0xbead40be	-0.33838457
4	0xbe9b54dd	-0.30338183
5	0xbcae55fe	-0.021281239
6	0xbf04f752	-0.5193988
7	0x3eff2d41	0.49839213
8	0x3d9e20a8	0.077210724
9	0xbd30fa96	-0.043207727
10	0x3ed6aa74	0.4192692
11	0xbe6dac49	-0.23210253
12	0x3e9668b7	0.29376766
13	0x3e3ac572	0.18239382
14	0xbdbffc7d	-0.0937433
15	0x3e8b9b27	0.2726681
16	0x3f06bfac	0.5263622
17	0xbe51fdf5	-0.20507033
18	0x3e5e6ffe	0.21722409
19	0xbecff34d	-0.4061531
20	0x3e916208	0.28395104
21	0xbe270376	-0.16309914
22	0xbeac63b3	-0.33669814
23	0xbef6e06a	-0.4821809
24	0x3dbf8248	0.09351021
25	0x3e324b5d	0.17411561
26	0x3d9ac101	0.07556344
27	0xbe687ca1	-0.22703792
28	0x3ee79127	0.4522793
29	0xbec6e5a9	-0.38847092
30	0xbf0bfdfd	-0.5468443
31	0x3e8ae04c	0.2712425
32	0x3eb21b85	0.3478662
33	0xbdcfdfd1	-0.101501115
34	0xbeea61af	-0.45777652
35	0xbdd237b0	-0.10264528
36	0x3eed531d	0.46352473
37	0x3eea28b4	0.4573418
38	0x3ec274c3	0.37979707
39	0x3ef10086	0.47070712
40	0x3e03dedb	0.12877981
41	0xbf0924fe	-0.5357207
42	0xbec636f6	-0.38713807
43	0x3dd77b49	0.10521562
44	0x3e22b845	0.15890606
45	0x3d2df37c	0.042468533
46	0xbdeeba84	-0.11656669
47	0x3b9c8dd6	0.0047776503
48	0x3e998e92	0.29991585
49	0x3e8c2fd2	0.27380234
50	0x3e4d04bc	0.20021337
51	0x3e9366c1	0.28789333
52	0x3e3809ea	0.17972532
53	0x3eaa031e	0.33205503
54	0x3c9dc2b8	0.019257888
55	0xbe4dd7bc	-0.20101827
56	0x3ca60a76	0.02026866
57	0x3f05d946	0.5228466
58	0xbe863fa5	-0.26220432
59	0xbefb5bc6	-0.49093455
60	0xbecf8a7c	-0.40535343
61	0x3d9876b7	0.07444518
62	0xbe18dc0a	-0.14927688
63	0xbeb0957b	-0.34489045

encoder.layers.3.feed_forward_block.linear_1.bias f4 [16]
0	0x3db04546	0.08606963
1	0xbef05281	-0.46937945
2	0xbe3c175d	-0.18368287
3	0x3ed60be7	0.41805956
4	0x3b3995c8	0.0028318036
5	0xbea420ad	-0.3205618
6	0xbedda699	-0.43291166
7	0x3e635b9e	0.22202918
8	0x3eb26622	0.34843546
9	0xbdb989b7	-0.0905947
10	0xbec9c357	-0.39406845
11	0x3d9c7875	0.07640163
12	0x3eeeb227	0.46620294
13	0xbdabf43f	-0.083961956
14	0x3ee685fb	0.45024094
15	0x3bb9febe	0.0056761196

encoder.layers.3.feed_forward_block.linear_2.weight f4 [4, 16]
0	0x3ed84a87	0.4224436
1	0x3f0c4003	0.54785174
2	0xbedc73c4	-0.43057072
3	0x3e448e9a	0.19195023
4	0x3ea846e6	0.3286659
5	0x3f0c24a2	0.547434
6	0x3e87840d	0.26467934
7	0xbed5cbd4	-0.4175707
8	0xbe86ad4f	-0.263041
9	0xbe8cd6a9	-0.27507523
10	0x3ea0fe8a	0.31444198
11	0xbdc5a4f2	-0.096506014
12	0xbeee8fab	-0.46593985
13	0xbe0eb309	-0.13935484
14	0xbdf04f1e	-0.117338404
15	0x3ee047a9	0.43804672
16	0x3e3c4534	0.18385774
17	0xbe85db40	-0.26143837
18	0x3e15e825	0.14639337
19	0x3e329ce1	0.17442657
20	0xbea91f93	-0.33031902
21	0xbeebe85c	-0.46075714
22	0x3ee046c6	0.43803996
23	0xbd9369f3	-0.071979426
24	0x3e887c0d	0.26657143
25	0x3e96af77	0.29430744
26	0x3eb7672d	0.35820904
27	0x3dbe3e20	0.09289193
28	0x3e0dee29	0.13860382
29	0xbd1d5ba7	-0.038417485
30	0x3da33400	0.079689026
31	0x3e91b7f7	0.28460667
32	0xbe4181f2	-0.18897226
33	0xbd27a79b	-0.040931325
34	0x3d9df263	0.07712247
35	0xbe3d1e81	-0.18468668
36	0xbeeb482e	-0.45953506
37	0xbef3d64b	-0.4762443
38	0xbee05811	-0.4381719
39	0x3ece6579	0.40311792
40	0x3eecc0f1	0.46240953
41	0xbe8204e1	-0.25394347
42	0xbe37191d	-0.17880674
43	0xbe93e1f7	-0.28883335
44	0xbe349e69	-0.17638554
45	0xbee1bd87	-0.4408991
46	0x3eb6198b	0.35566363
47	0x3eb80c8d	0.35947075
48	0xbea6cf4b	-0.32580027
49	0xbe95c0f9	-0.2924879
50	0xbe43ed45	-0.1913348
51	0xbe9811eb	-0.2970117
52	0x3f06f92b	0.5272395
53	0x3ec31c20	0.38107395
54	0xbe85cafb	-0.26131424
55	0x3ecc12bf	0.39858052
56	0xbe115aaa	-0.14194742
57	0xbef7f93c	-0.48432338
58	0xbedbc082	-0.4292031
59	0x3bf0f410	0.0073533133
60	0x3dec37ca	0.115340784
61	0x3e0c1ea8	0.1368357
62	0xbeed4571	-0.46342042
63	0x3e5fe126	0.21863231

encoder.layers.3.feed_forward_block.linear_2.bias f4 [4]
0	0x3e1bec2d	0.15226813
1	0x3e10b560	0.14131689
2	0x3e1d2dce	0.15349504
3	0xbe09617a	-0.1341609

encoder.layers.3.residual_connections.0.norm.alpha f4 [4]
0	0x3f7eec64	0.99579453
1	0x3f808910	1.0041828
2	0x3f7f32d7	0.9968695
3	0x3f8089b6	1.0042026

encoder.layers.3.residual_connections.0.norm.bias f4 [4]
0	0xbb85bfd9	-0.004081708
1	0xbb9348da	-0.0044947686
2	0x3a43cbd4	0.00074690324
3	0xbb8a0221	-0.0042116796

encoder.layers.3.residual_connections.1.norm.alpha f4 [4]
0	0x3f805fd1	1.0029241
1	0x3f80ab51	1.0052282
2	0x3f80a217	1.0049466
3	0x3f80a474	1.0050187

encoder.layers.3.residual_connections.1.norm.bias f4 [4]
0	0x3b13b7d3	0.0022539988
1	0xbba401b6	-0.005005087
2	0x3ba6cbcc	0.0050902124
3	0xbba6866b	-0.005081942

encoder.layers.4.self_attention_block.w_q.weight f4 [16, 4]
0	0x3e21cb7c	0.1580028
1	0x3c4f9527	0.012669838
2	0x3ec51798	0.38494563
3	0x3ef5b1f5	0.47987333
4	0x3e0975b2	0.13423803
5	0x3e142f04	0.1447106
6	0xbcd9598c	-0.026531957
7	0xbedc9e5a	-0.43089563
8	0x3e1aae56	0.15105566
9	0xb940ad25	-0.00018375048
10	0x3ec1ff8e	0.37890285
11	0xbf03410d	-0.51271135
12	0xbeec12a8	-0.46107984
13	0xbdaf98f0	-0.085740924
14	0xbdc0931b	-0.09403058
15	0x3e37c8ff	0.17947768
16	0x3ed3747e	0.41299814
17	0xbe70dd55	-0.23521931
18	0xbe811481	-0.25210956
19	0x3c19e3c6	0.009392684
20	0xbe960f2d	-0.29308453
21	0x3e4f29ef	0.2023084
22	0x3f063092	0.5241786
23	0xbea55204	-0.32289135
24	0xbeb0273d	-0.34404936
25	0x3e8e9142	0.27845198
26	0x3da913b1	0.08255709
27	0x3ed3a650	0.41337824
28	0xbcf89d2d	-0.030348385
29	0xbed9b390	-0.42519808
30	0x3e3d4be6	0.18485984
31	0x3ebfd8b9	0.37470034
32	0xbeaf9af5	-0.3429791
33	0xbddebb92	-0.1087562
34	0xbe6f1e77	-0.23351465
35	0xbd091b21	-0.033473138
36	0x3efd2919	0.49445418
37	0xbef3d8df	-0.47626397
38	0x3ec05d50	0.37571192
39	0x3f00fb4e	0.5038346
40	0xbd91a70f	-0.07111942
41	0x3e84a301	0.25905612
42	0xbe825113	-0.2545248
43	0x3f0870d3	0.53297156
44	0xbdba0482	-0.09082891
45	0xbe7df3b3	-0.24799995
46	0xbe43f250	-0.19135404
47	0x3e8a955b	0.27067074
48	0x3e660982	0.22464564
49	0xbee30d5c	-0.4434613
50	0x3ea6150a	0.32437927
51	0x3de5c0e2	0.1121843
52	0xbe59e5df	-0.21279095
53	0xbe84d7bc	-0.25945842
54	0x3db4c80e	0.0882722
55	0xbed32c7d	-0.4124488
56	0x3e22587d	0.15854068
57	0x3e2f03c8	0.17091286
58	0xbca96f73	-0.020683026
59	0xbe886b34	-0.2664429
60	0x3f032635	0.51230174
61	0xbefdda06	-0.495804
62	0xbdfca9f2	-0.12337102
63	0xbeddd007	-0.43322775

encoder.layers.4.self_attention_block.w_k.weight f4 [16, 4]
0	0x3e890b2a	0.2676633
1	0x3efa9487	0.48941442
2	0x3e878618	0.26469493
3	0xbf049718	-0.5179305
4	0xbefd1852	-0.49432617
5	0xbed13d9e	-0.40867323
6	0xbcea2aa0	-0.028584778
7	0xbe00049d	-0.1250176
8	0x3e89a891	0.26886418
9	0xbdc45a0f	-0.0958749
10	0x3d08d6df	0.033408042
11	0x3e70c190	0.23511338
12	0xbedfe9c8	-0.43733048
13	0xbe2a24ee	-0.1661565
14	0x3eabd800	0.33563232
15	0xbe14fce2	-0.14549592
16	0x3dca3bda	0.09874697
17	0xbe4c8fac	-0.19976681
18	0x3e2a08ba	0.16604891
19	0xbe0cc76a	-0.13747945
20	0xbe8a9a69	-0.2707093
21	0xbeb267f2	-0.3484493
22	0x3d98b52f	0.07456433
23	0x3d399f96	0.04531821
24	0xbe544b1d	-0.20731778
25	0x3e09561c	0.13411754
26	0xbedc5895	-0.43036333
27	0xbec39396	-0.38198537
28	0xbde702f8	-0.11279863
29	0x3df71df6	0.120662615
30	0x3ef5cea4	0.48009217
31	0xbded2663	-0.11579587
32	0xbd16daa4	-0.036829606
33	0x3f055902	0.5208894
34	0x3d133323	0.03593744
35	0xbe2730e0	-0.16327238
36	0x3f085137	0.53248924
37	0xbef08b05	-0.46981063
38	0xbe4ef893	-0.20212011
39	0x3e1557b6	0.1458424
40	0x3e677ed3	0.22606973
41	0x3d48e391	0.04904515
42	0x3ed321fb	0.41236863
43	0xbe30ba6e	-0.17258617
44	0xbeb61f0d	-0.35570565
45	0x3eccde08	0.40013146
46	0xbde2e868	-0.11079484
47	0xbf052a84	-0.52018
48	0x3ea51b6b	0.3224748
49	0xbf034fa4	-0.51293397
50	0x3d9d3e5a	0.07677908
51	0x3ed75fe2	0.4206534
52	0x3df9489a	0.12172051
53	0x3e6643a9	0.22486748
54	0xbe2188d6	-0.15774855
55	0x3d9126a5	0.07087449
56	0xbf02446f	-0.5088567
57	0x3e35d237	0.17755972
58	0xbe81d712	-0.25359398
59	0xbc364b0e	-0.011126293
60	0xbdc7ebc1	-0.09761763
61	0x3e926efd	0.28600302
62	0x3c92021b	0.01782327
63	0xbdef4a3a	-0.116840795

encoder.layers.4.self_attention_block.w_v.weight f4 [16, 4]
0	0xbebdd78c	-0.37078512
1	0x3db9a208	0.09064108
2	0x3ef86e1d	0.4852151
3	0x3e8a37f5	0.26995817
4	0x3eb0f75b	0.34563717
5	0x3efcdce0	0.49387264
6	0x3eb796dc	0.35857284
7	0x3f028169	0.50978714
8	0x3f001166	0.5002655
9	0xbeab2cc4	-0.3343259
10	0x3ee225fa	0.441696
11	0x3ea5a258	0.3235042
12	0xbe1dcb5f	-0.15409611
13	0xbd59a2d9	-0.05313382
14	0xbef61710	-0.4806447
15	0x3ea24a6e	0.3169741
16	0xbefbb9e8	-0.49165273
17	0xbecb1162	-0.396617
18	0xbd744656	-0.05963739
19	0x3f01c5f6	0.5069269
20	0xbe386bbe	-0.1800985
21	0x3e396824	0.18106133
22	0x3e0b965a	0.13631573
23	0xbee4faa0	-0.44722462
24	0xbed74a13	-0.42048702
25	0xbf079705	-0.5296481
26	0x3ee2445c	0.4419278
27	0xbd813982	-0.06309797
28	0x3eaabd55	0.33347574
29	0x3e197e0a	0.14989486
30	0xbe5bd502	-0.21467975
31	0x3f09cc1e	0.53827083
32	0xbee54979	-0.44782618
33	0xbe371415	-0.17878754
34	0x3e0e1544	0.138753
35	0xbe3338aa	-0.17502084
36	0xbea38fb9	-0.3194559
37	0x3ca5e85d	0.020252401
38	0xbe588bbf	-0.21147059
39	0xbd8c13ff	-0.068397515
40	0xbe58a7cc	-0.2115776
41	0xbf07a6a8	-0.5298867
42	0xbdd62b5c	-0.10457489
43	0xbe5da055	-0.21643193
44	0x3d6e9747	0.058249738
45	0x3f016932	0.5055114
46	0xbebbac10	-0.3665471
47	0x3f08fd8d	0.5351189
48	0xbc6b28fc	-0.014353033
49	0x3e3a0423	0.1816564
50	0xbed7e72e	-0.42168564
51	0x3edc9e9d	0.43089762
52	0x3e8c681a	0.27423173
53	0xbeae48a8	-0.34039807
54	0x3ebb33c9	0.36562946
55	0x3ea115c2	0.31461912
56	0xbecc096d	-0.3985094
57	0xbccb90c4	-0.024849303
58	0xbec37e76	-0.3818242
59	0xbefb739e	-0.49111646
60	0xbecad987	-0.39619085
61	0xbbaaf102	-0.0052167187
62	0x3e894fba	0.2681864
63	0x3eb29a97	0.34883568

encoder.layers.4.self_attention_block.w_o.weight f4 [4, 16]
0	0x3e7b7c6a	0.24559179
1	0xbef36d2d	-0.47544232
2	0xbd0f5ea0	-0.03500235
3	0x3d2da94e	0.04239779
4	0x3ec4b100	0.3841629
5	0x3e9cd438	0.3063066
6	0x3e5052a8	0.20344031
7	0x3d39e937	0.045388427
8	0x3e80c6c0	0.25151634
9	0xbe4cdb1f	-0.20005463
10	0x3eb206a1	0.34770682
11	0x3d454594	0.048162058
12	0x3ed41186	0.4141962
13	0x3c896c6e	0.016775336
14	0x3f05d298	0.52274466
15	0xbe917e81	-0.28416827
16	0x3ea06825	0.31329456
17	0x3ddb2093	0.106995724
18	0x3ecad1f2	0.396133
19	0xbeedd83d	-0.4645404
20	0xbe7db15c	-0.24774688
21	0xbec99168	-0.3936875
22	0xbebdf275	-0.37099043
23	0x3903ef78	0.00012582343
24	0x3e507625	0.20357569
25	0x3da751b2	0.08169879
26	0x3f0abbcc	0.54192805
27	0x3d9cde36	0.07659571
28	0x3cfeea26	0.03111751
29	0xbef12dc9	-0.47105244
30	0xbe3fe753	-0.18740587
31	0xbeb8a3e8	-0.3606255
32	0x3ea53cf3	0.32273063
33	0xbd2fb071	-0.042892877
34	0x3efde785	0.49590698
35	0xbef870c9	-0.48523548
36	0xbd8292aa	-0.0637563
37	0xbe57156b	-0.21004264
38	0x3decf949	0.11570985
39	0x3ecdb53e	0.4017734
40	0x3d8b7776	0.06809895
41	0xbe33ddd7	-0.17565094
42	0x3ddd5807	0.108078055
43	0xbecc15e8	-0.39860463
44	0x3e2bcb6b	0.16776817
45	0x3e6c42c8	0.2307235
46	0x3db3dc07	0.08782201
47	0xbee433c5	-0.44570747
48	0x3dbf5eb0	0.09344232
49	0xbf0a0b8f	-0.53923887
50	0x3e572d54	0.21013385
51	0xbee9b0e4	-0.4564277
52	0x3eb68d45	0.35654655
53	0xbe9ebd1b	-0.3100365
54	0xbee28a57	-0.4424617
55	0x3e89c80f	0.26910445
56	0xbecd751e	-0.40128416
57	0xbe9bc279	-0.30421808
58	0x3ead569f	0.3385515
59	0x3ee88e66	0.4542114
60	0xbefeeb31	-0.49788812
61	0xbf0a963b	-0.54135484
62	0xbecf491f	-0.40485474
63	0xbe94330e	-0.28945202
